…
    (0): Conv2d(16, 8, kernel_size=(3, 3), stride=(1, 1), padding=(1, 1))
    (1): Identity()
  )
)
test_save_path: research/white-mold-applications/model/predictions/TU_WhiteMold224/TU_pretrain_R50-ViT-B_16_skip3_epo50_bs24_224

Showing Model size

=========================================================================================================
Layer (type:depth-idx)                                  Output Shape              Param #
=========================================================================================================
VisionTransformer                                       [1, 8, 224, 224]          --
├─Transformer: 1-1                                      [1, 196, 768]             --
│    └─Embeddings: 2-1                                  [1, 196, 768]             150,528
│    │    └─ResNetV2: 3-1                               [1, 1024, 14, 14]         11,894,848
│    │    └─Conv2d: 3-2                                 [1, 768, 14, 14]          787,200
│    │    └─Dropout: 3-3                                [1, 196, 768]             --
│    └─Encoder: 2-2                                     [1, 196, 768]             --
│    │    └─ModuleList: 3-4                             --                        85,054,464
│    │    └─LayerNorm: 3-5                              [1, 196, 768]             1,536
├─DecoderCup: 1-2                                       [1, 16, 224, 224]         --
│    └─Conv2dReLU: 2-3                                  [1, 512, 14, 14]          --
│    │    └─Conv2d: 3-6                                 [1, 512, 14, 14]          3,538,944
│    │    └─BatchNorm2d: 3-7                            [1, 512, 14, 14]          1,024
│    │    └─ReLU: 3-8                                   [1, 512, 14, 14]          --
│    └─ModuleList: 2-4                                  --                        --
│    │    └─DecoderBlock: 3-9                           [1, 256, 28, 28]          2,950,144
│    │    └─DecoderBlock: 3-10                          [1, 128, 56, 56]          737,792
│    │    └─DecoderBlock: 3-11                          [1, 64, 112, 112]         147,712
│    │    └─DecoderBlock: 3-12                          [1, 16, 224, 224]         11,584
├─SegmentationHead: 1-3                                 [1, 8, 224, 224]          --
│    └─Conv2d: 2-5                                      [1, 8, 224, 224]          1,160
│    └─Identity: 2-6                                    [1, 8, 224, 224]          --
=========================================================================================================
Total params: 105,276,936
Trainable params: 105,276,936
Non-trainable params: 0
Total mult-adds (Units.GIGABYTES): 11.95
=========================================================================================================
Input size (MB): 0.60
Forward/backward pass size (MB): 416.34
Params size (MB): 420.51
…
